test.model (torch_old, 69480 bytes, 14 tensors)

layer1.0.weight f4 [16, 1, 5, 5]
0	0xbe0557c9	-0.13021769
1	0xbb3008ab	-0.0026860635
2	0xbe0f8eb0	-0.14019275
3	0x3d685b52	0.056727715
4	0xbe0dbf3d	-0.13842483
5	0x3d811c50	0.06304228
6	0x3e035037	0.12823568
7	0xbd9b3a76	-0.0757951
8	0x3e1723ca	0.14759746
9	0x3e10f628	0.14156401
10	0x3e56dcf9	0.20982732
11	0xbd963317	-0.07333963
12	0x3d32621a	0.04355059
13	0x3da3e7bc	0.08003184
14	0x3cbd2560	0.02308911
15	0x3d8b3998	0.067980945
16	0xbcefa36d	-0.029252732
17	0xbb1549de	-0.0022779624
18	0x3e34d7e4	0.1766048
19	0x3bf27b6a	0.007399966
20	0xbe2ffb4e	-0.17185709
21	0xbe3755eb	-0.17903869
22	0x3dc9c5d2	0.09852184
23	0x3e1afa1c	0.15134472
24	0x3df816ab	0.121136986
25	0xbdcfee35	-0.10152856
26	0xbd85b2ac	-0.065282196
27	0x3d275ccc	0.040859982
28	0x3d3e6220	0.046480298
29	0xbd067e03	-0.032835018
30	0x3d717f80	0.058959484
31	0xbcb19b85	-0.021680603
32	0xbd90caef	-0.070699565
33	0x3e3d9646	0.18514356
34	0x3e0065c0	0.12538815
35	0xbddfc705	-0.10926632
36	0x3dfd10fc	0.12356755
37	0x3dcb693d	0.09932182
38	0x3c96467d	0.018344158
39	0x3bf00e95	0.007325957
40	0x3e2e853a	0.1704301
41	0xbe18adb7	-0.14910017
42	0xbda6eaa9	-0.081502266
43	0xbe2c6d44	-0.16838557
44	0xbd0cf333	-0.03441162
45	0xbe157ca0	-0.14598322
46	0x3e32f7f8	0.17477405
47	0x3c3de24b	0.011589597
48	0xbe2fbc5e	-0.171617
49	0xbd4d2cc7	-0.05009153
50	0xbbf047e6	-0.0073327897
51	0xbe4943b6	-0.19654736
52	0x3e1072e3	0.14106326
53	0xbdee0e71	-0.11623848
54	0xbe212099	-0.15735091
55	0xbe1f8abf	-0.15580271
56	0x3d997187	0.07492357
57	0xbe31e457	-0.17372261
58	0x3dfa6876	0.122269556
59	0xbde6a8fe	-0.112627015
60	0xbdb325fe	-0.08747481
61	0x3e37b168	0.17938769
62	0xbd857577	-0.06516545
63	0xbe061dd2	-0.13097313
64	0x3e0361f8	0.12830341
65	0xbd881017	-0.06643694
66	0xbe1daf4f	-0.15398906
67	0x3c8006ff	0.015628336
68	0xbe30136b	-0.17194907
69	0xbd9e232b	-0.077215515
70	0x3e071006	0.13189706
71	0x3e23eeeb	0.16009109
72	0xbe018be1	-0.12651016
73	0x3ccaa5e9	0.024737315
74	0xbc899471	-0.016794415
75	0x3e42eb7b	0.19035141
76	0x3d7dac60	0.061931968
77	0xbcd1fec8	-0.025634184
78	0xbdf82ad1	-0.121175416
79	0xbe33ec0f	-0.17570518
80	0xbe1d5449	-0.15364183
81	0xbe4492c1	-0.19196607
82	0x3e3b51cf	0.18292926
83	0x3d4c11a1	0.0498215
84	0x3dd22408	0.10260779
85	0x3c502c9f	0.012705951
86	0x3e0b7c37	0.13621603
87	0xbe2a0126	-0.16602
88	0xbe58073d	-0.21096511
89	0xbcb60988	-0.022221342
90	0x3e1962ff	0.1497917
91	0xbe2c8a09	-0.16849531
92	0xbe10e9c7	-0.14151679
93	0x3cc9fbb1	0.024656149
94	0x3e25e086	0.1619893
95	0xbe14697f	-0.14493369
96	0x3da86e85	0.08224205
97	0x38d7a3cc	0.000102825084
98	0xbda60865	-0.0810707
99	0x3cad416d	0.021149362
100	0xbe1087ba	-0.14114276
101	0x3e57a2e2	0.21058229
102	0x3e34d9e3	0.17661242
103	0x3d936038	0.07196087
104	0x3dcd05ea	0.10010894
105	0xbe2b9ae9	-0.16758312
106	0x3e4005aa	0.1875216
107	0x3e2c33ef	0.16816686
108	0xbce4c20f	-0.027924566
109	0xbdeac5c4	-0.11463502
110	0x3e1515fe	0.1455917
111	0xbe0fe34d	-0.14051552
112	0x3d505a78	0.050867528
113	0x3e1744e2	0.1477237
114	0x3dca6dd6	0.09884231
115	0x3e2e3e4b	0.1701595
116	0x3ca27ad5	0.019833962
117	0x3d476b1b	0.048686128
118	0x3dab6b1e	0.0837004
119	0x3dc455ec	0.09586701
120	0x3e0df1e0	0.13861799
121	0x3e09035d	0.13380189
122	0xbd9a13d3	-0.075233124
123	0xbdcd06f8	-0.10011095
124	0x3cb99096	0.022651952
125	0xbdffbf21	-0.12487627
126	0x3d963579	0.07334418
127	0xbdf438c3	-0.11924889
128	0x3e1f39e4	0.15549427
129	0xbe29fdc5	-0.16600712
130	0xbd184bf6	-0.037181817
131	0xbe40f23b	-0.18842404
132	0xbdeb5d0d	-0.114923574
133	0x3d42a362	0.047519095
134	0x3c0f55c0	0.008748472
135	0xbdf6795b	-0.120348655
136	0xbdfdefc1	-0.12399245
137	0xbe67efb5	-0.22650035
138	0xbdc1699a	-0.0944397
139	0xbdbab471	-0.09116448
140	0x3e0cee0c	0.13762683
141	0x3e28de60	0.1649108
142	0x3b87addd	0.004140599
143	0x3dd7608e	0.10516463
144	0x3dd761c8	0.10516697
145	0xbb8d3625	-0.004309433
146	0x3d15777f	0.036490913
147	0xbd2772b8	-0.04088089
148	0xbd983572	-0.07432069
149	0x3cd2adc5	0.025717625
150	0xbd811762	-0.06303288
151	0xbe381336	-0.17976078
152	0x3e395414	0.1809848
153	0x3de239c5	0.11046175
154	0x3dfed016	0.12442033
155	0xbe07c55d	-0.13258882
156	0x3dc859f0	0.09782779
157	0xbdfcbea8	-0.12341052
158	0xbd2cda58	-0.042200416
159	0x3e3ae1f7	0.18250261
160	0x3df3fe26	0.11913709
161	0xbe296bf0	-0.16545081
162	0xbdc36a5f	-0.09541773
163	0x3e2bd309	0.16779722
164	0x3cf48bec	0.029851876
165	0x3e123261	0.1427703
166	0x3dd44710	0.103651166
167	0x3c84e900	0.016224384
168	0xbe341181	-0.17584802
169	0xbde38ce5	-0.11110858
170	0xbdb9e5ed	-0.09077058
171	0xbe0f547e	-0.13997075
172	0xbdfa1421	-0.122108705
173	0xbe2f7073	-0.1713274
174	0x3cc690ac	0.024238907
175	0x3dda8b24	0.1067107
176	0xbdafc681	-0.085827835
177	0xbe0e3a21	-0.13889362
178	0xbd8dc9fa	-0.069232896
179	0x3dfe4eb2	0.12417354
180	0xbdb4ff93	-0.088378094
181	0xbe1157e6	-0.14193687
182	0x3d9276a3	0.071515344
183	0x3d9eaaf9	0.07747454
184	0x3d0ea51f	0.03482544
185	0xbda27163	-0.07931783
186	0xbda7f390	-0.08200753
187	0x3b2d15a0	0.0026410595
188	0x3dc4f773	0.0961751
189	0x3cfdd580	0.030985594
190	0x3dd44ee9	0.103666134
191	0x3ce1d030	0.027565092
192	0x3d9a5a05	0.07536701
193	0xbdac1139	-0.084017225
194	0xbe5bb57e	-0.21455953
195	0xbc31ea67	-0.0108591085
196	0x3e532a29	0.20621552
197	0xbbdbb324	-0.006704705
198	0x3c5d270a	0.013498077
199	0x3dac3c18	0.084098995
200	0x3e17f438	0.14839256
201	0xbe127987	-0.14304172
202	0x3e137074	0.14398366
203	0xbddb35db	-0.107036315
204	0xbd9a139c	-0.075232714
205	0x3d5b31ae	0.053514175
206	0xbe029382	-0.12751582
207	0x3c79c3b5	0.015244414
208	0x3d00d255	0.03145059
209	0x3ddcdaf6	0.10783951
210	0x3df360c3	0.1188369
211	0xbbf45d52	-0.0074574137
212	0xbd135e6a	-0.035978712
213	0xbddd6c9a	-0.1081173
214	0x3bbe95bc	0.0058161896
215	0x3dea7568	0.11448175
216	0x3cf6e3b4	0.030137874
217	0x3e1bf2cb	0.15229337
218	0xbc5cab0a	-0.013468513
219	0xbe5bc5f4	-0.21462232
220	0x3ad94947	0.0016577624
221	0xbd8ceee9	-0.06881506
222	0xbe0db749	-0.13839449
223	0xbe146c2e	-0.14494392
224	0x3dfb5139	0.12271351
225	0x3cc94419	0.024568604
226	0xbda4966c	-0.08036503
227	0xbcf65fef	-0.030075042
228	0x3c0c5953	0.008566218
229	0x3c9d40d1	0.019195946
230	0xbc57c256	-0.013168892
231	0xbe47a86e	-0.19497845
232	0xbe3a578d	-0.1819746
233	0x3d034db0	0.03205651
234	0x3dec6626	0.11542921
235	0xbceba1c0	-0.028763652
236	0x3e2d2155	0.16907246
237	0x3d667ad1	0.05626947
238	0x3e455ef3	0.19274502
239	0xbe0fcc10	-0.14042687
240	0x3e3f88a0	0.18704462
241	0x3db88e6b	0.09011539
242	0xbe06cfe1	-0.13165237
243	0x3c1a8e92	0.0094334055
244	0x3e333152	0.17499283
245	0xbe119c58	-0.14219797
246	0xbde82702	-0.11335565
247	0xbd15c826	-0.03656783
248	0xbe1a7f4f	-0.15087627
249	0xbe1d967a	-0.15389434
250	0xbdf41ead	-0.119199134
251	0x3bf2f1d7	0.0074140835
252	0xbd0c9fea	-0.034332193
253	0x3ced7072	0.028984282
254	0x3dc5af24	0.09652546
255	0x3d02f98e	0.031976275

layer1.0.bias f4 [16]
0	0x3e31b5f0	0.1735456
1	0xbdc68a44	-0.09694341
2	0xbe04318a	-0.12909523
3	0x3d02a5fc	0.031896576
4	0xbe0d9dc9	-0.13829722
5	0xbc44f2ea	-0.012020806
6	0x3cfefce1	0.031126441
7	0x3de2e85a	0.11079474
8	0xbdae510a	-0.08511551
9	0xbd73b06c	-0.05949442
10	0x3d667967	0.056268122
11	0x3ce107fb	0.027469626
12	0x3dd558d9	0.10417337
13	0x3bae3995	0.005316923
14	0x3c71e650	0.014764383
15	0x3e28deca	0.16491237

layer1.1.weight f4 [16]
0	0x3f6b6eb2	0.9196578
1	0x3f4ea41b	0.80719155
2	0x3f2aa78c	0.66661906
3	0x3e09db64	0.13462597
4	0x3f28e5ba	0.65975535
5	0x3f1b43e2	0.60650456
6	0x3ebb6607	0.36601278
7	0x3e41529e	0.18879172
8	0x3ee14048	0.43994355
9	0x3efa4c21	0.48886207
10	0x3d9ce3b8	0.076606214
11	0x3eb584ff	0.3545303
12	0x3dc4038c	0.09570989
13	0x3f11fdc8	0.57027864
14	0x3da1d0be	0.079011425
15	0x3ee86a70	0.45393705

layer1.1.bias f4 [16]
0	0x3c4ef2f6	0.012631169
1	0x3c966342	0.018357877
2	0xbd1239f0	-0.035699785
3	0x3c6026a2	0.013681086
4	0xbb7c06b8	-0.0038456153
5	0xbc347f4a	-0.011016676
6	0xb723fc18	-9.774252e-06
7	0x3ac42e8a	0.0014967483
8	0x3acfc0b8	0.0015850281
9	0xbca79be8	-0.020460084
10	0xbcb5cf29	-0.022193508
11	0x3c66d185	0.014088039
12	0x3cb25b02	0.021771912
13	0x3ce45461	0.027872266
14	0x3c81f5c9	0.01586427
15	0xbd10d0fc	-0.035355553

layer1.1.running_mean f4 [16]
0	0x412def9e	10.871
1	0xc008a123	-2.134835
2	0xc17ac78d	-15.673718
3	0xc0eb6f7c	-7.357359
4	0x41c34021	24.406313
5	0xc14fd6ca	-12.989939
6	0xc0ab531f	-5.3538966
7	0x3e9f9004	0.31164563
8	0xc02f9c83	-2.7439277
9	0xc0b1fd2e	-5.5621557
10	0xc0887b26	-4.265033
11	0xc0936e4b	-4.6072135
12	0xc0b6ec77	-5.7163653
13	0xc0bffbc6	-5.999484
14	0x40643064	3.5654535
15	0x41187761	9.529145

layer1.1.running_var f4 [16]
0	0x4426b216	666.7826
1	0x4393aecd	295.36563
2	0x4427df58	671.48975
3	0x43bd07b1	378.0601
4	0x44a8eb87	1351.3602
5	0x4433e592	719.58704
6	0x440a051f	552.08
7	0x436e66af	238.40111
8	0x437d764e	253.46213
9	0x43ad9f00	347.2422
10	0x43fd3043	506.37704
11	0x43c1d3a3	387.6534
12	0x4395f737	299.93137
13	0x43f4c18c	489.5121
14	0x43d2b8b2	421.44293
15	0x43f048e8	480.56958

layer2.0.weight f4 [32, 16, 5, 5]
0	0xbc70da77	-0.014700524
1	0xbc8bd202	-0.017067913
2	0xbbfbe93e	-0.0076877167
3	0x3d1d65d8	0.038427204
4	0x3d5b96be	0.053610556
5	0xbd5b01ea	-0.053468622
6	0xbcbd7165	-0.02312536
7	0xbc5d4ca9	-0.013507047
8	0xbd40f33c	-0.047106966
9	0x3ba8cf63	0.0051516755
10	0x3cd7b259	0.02633016
11	0xbcaacb9c	-0.020849042
12	0x3b95bda6	0.004569727
13	0xbb4d12b8	-0.0031291675
14	0xbd07dc1c	-0.033168897
15	0xbd26ed36	-0.040753566
16	0x3c7dc03d	0.015487728
17	0x3cfb59de	0.0306825
18	0x391af798	0.0001477882
19	0x3d73523d	0.0594046
20	0xbcbcd4e3	-0.023050731
21	0x3c6e824d	0.014557433
22	0x3c08fcba	0.008361036
23	0xbabdef5a	-0.0014490888
24	0xbd81f488	-0.06345469
25	0x3d1b5544	0.037923113
26	0xbd360b57	-0.04444441
27	0xbcf07aed	-0.02935549
28	0x3c6aa745	0.014322107
29	0xbce3062b	-0.027712902
30	0xbc270eb1	-0.010196374
31	0xbc84c9ba	-0.016209472
32	0xbcbce9aa	-0.023060638
33	0x3d6428d2	0.05570299
34	0xbb42b727	-0.0029711218
35	0x3d005043	0.031326544
36	0xba8c07c2	-0.0010683464
37	0x3ca0cb9e	0.019628342
38	0xbd50af72	-0.050948568
39	0xbc5c3a38	-0.013441615
40	0x3c3bdeab	0.011466662
41	0x3caab1a3	0.020836657
42	0xbb97f24e	-0.0046370393
43	0xbc0a8b21	-0.0084560225
44	0x3c64edee	0.0139727425
45	0xbd5a2bf7	-0.053264584
46	0x3c9efebc	0.019408576
47	0x3d009ddd	0.03140055
48	0x3c91bb47	0.017789496
49	0xbd2c1344	-0.04201056
50	0x3d1e049f	0.038578626
51	0xbd2f75ad	-0.042836834
52	0xbcaceba7	-0.021108462
53	0x3b872aca	0.004124974
54	0xbd84346a	-0.0645531
55	0xbbdf6528	-0.0068174787
56	0xbbcf5c9d	-0.006328179
57	0x3d772732	0.060340114
58	0xbd6a9c73	-0.057278108
59	0x3c149e6a	0.009070972
60	0x3cffe309	0.031236188
61	0xbd1d1595	-0.03835066
62	0x3d73ff7c	0.05956982
63	0xbd5074ff	-0.050892826
64	0x3c46b66b	0.012128453
65	0x3c9c6edb	0.019095829
66	0x3c66908e	0.01407255
67	0xbd1c7ac2	-0.03820301
68	0x3c3316a8	0.010930695
69	0x3c91e141	0.017807605
70	0x3cb9daa8	0.022687271
71	0x3cd4bc8d	0.025968814
72	0xbc2a89b2	-0.010408806
73	0xbc4aeb59	-0.012385213
74	0x3c9701bc	0.018433444
75	0xbd6ad28f	-0.05732971
76	0x3d241b30	0.04006499
77	0xbd3d0ab7	-0.046152797
78	0x3d955852	0.072922364
79	0xbda563a0	-0.080756426
80	0xbd0d7822	-0.034538396
81	0x3c8177e0	0.015804231
82	0x3d51d69c	0.051230058
83	0xbde72f73	-0.11288347
84	0xbd9d8dc6	-0.07693057
85	0x3ca7279e	0.020404633
86	0xbcfe3e8a	-0.03103568
87	0x3c7db373	0.015484679
88	0xbd5fad86	-0.054608844
89	0xbd82ef4c	-0.063932985
90	0x3cc3bbc1	0.023893239
91	0x3ca69ea6	0.020339321
92	0xbd895e30	-0.06707418
93	0xbc0eef09	-0.008723983
94	0x3da20896	0.07911794
95	0x3d1e4fce	0.038650326
96	0x3d6db443	0.05803324
97	0x3cf67170	0.030083388
98	0xbc0021f8	-0.007820599
99	0x3b1817d5	0.0023207564
100	0x3c7c5619	0.015401387
101	0xbca2e876	-0.019886237
102	0xba8bfec3	-0.0010680783
103	0xbcfb7d8f	-0.03069952
104	0xb9260f9a	-0.00015836806
105	0xbb8e500c	-0.0043430384
106	0xbc553534	-0.013013173
107	0xbd11f7c1	-0.035636667
108	0xbcf9d2e7	-0.030496074
109	0xbc8d791c	-0.017269664
110	0xbcfa01df	-0.03051847
111	0x3d090866	0.033455275
112	0x3b9eae6e	0.004842571
113	0xbb75cd94	-0.0037506567
114	0xbcd5b5bf	-0.02608764
115	0x3b015932	0.0019737002
116	0x3d176b0b	0.03696732
117	0x3cc253ae	0.023721542
118	0xbd0aa667	-0.0338501
119	0x3d40589c	0.046959504
120	0x3c1be819	0.009515786
121	0xbd532077	-0.051544633
122	0xbc29a10a	-0.010353336
123	0xbd469bbd	-0.048488367
124	0xbd15298e	-0.036416583
125	0x3bc1e32c	0.0059169736
126	0xbc9f6750	-0.019458443
127	0xbd383bbf	-0.044978853
128	0xbce4f135	-0.027947048
129	0xbc8b7e1a	-0.017027903
130	0x3d31ac6d	0.04337733
131	0x3d08020e	0.033205085
132	0xbc69a895	-0.0142613845
133	0xbd7f61e6	-0.062349223
134	0x3d00cc98	0.031445116
135	0x3d36c46b	0.044620913
136	0xbbb13e81	-0.0054090624
137	0xbc899ac9	-0.01679744
138	0x3c198f80	0.009372592
139	0x3d075a39	0.033045027
140	0xbaaf72b1	-0.0013385621
141	0xbc553ae3	-0.013014528
142	0xbc522be1	-0.012827844
143	0x3c9dba0c	0.019253753
144	0x3d08262c	0.03323953
145	0xbcb52fa4	-0.022117443
146	0x3c1ac8bd	0.009447274
147	0xbd69ac68	-0.057049185
148	0xbceee540	-0.02916205
149	0x3d0b03c8	0.033939153
150	0x3d0299bd	0.031884898
151	0xbcd112ce	-0.025521662
152	0xbd0f14d4	-0.034931973
153	0x3b96c1ee	0.004600755
154	0x3cc5d99f	0.024151621
155	0xb93ea5c7	-0.00018181569
156	0x3d011a22	0.031519063
157	0x3cd2fa5d	0.025754148
158	0x3bacaea4	0.005269842
159	0x3d46ccd3	0.04853518
160	0xbbe88278	-0.007095631
161	0x3d38e334	0.045138553
162	0x3bb62b7a	0.005559382
163	0x3d777f4a	0.060424127
164	0x3c7ffc84	0.015624169
165	0x3d84759b	0.06467744
166	0xbc807a8d	-0.015683437
167	0xbcc0033b	-0.02343904
168	0xbc324028	-0.010879554
169	0xbcb48a7e	-0.022038694
170	0x3c94eb39	0.01817857
171	0xbccf54a0	-0.025308907
172	0x3c42280f	0.011850371
173	0x3d84f167	0.06491356
174	0x3d619387	0.055072334
175	0x3cd894ba	0.026438106
176	0xbb54fc90	-0.0032499172
177	0xbc8d3a40	-0.01723969
178	0x3d4ce219	0.05002031
179	0x3d759709	0.05995849
180	0x3d2a8a2a	0.04163567
181	0x3d6bd92e	0.057580166
182	0x3cc54251	0.024079474
183	0x3ce19d49	0.02754082
184	0x3a858f97	0.0010189888
185	0x3ce1f6fc	0.027583592
186	0x3d3d1e75	0.046171624
187	0x3d5d95c0	0.05409789
188	0x3d3c42c7	0.04596212
189	0x3d43de74	0.04781957
190	0x3d20c884	0.039253727
191	0x3ce73276	0.028222304
192	0xbd4f814b	-0.050660413
193	0xbd196592	-0.03745038
194	0xbc9201d7	-0.017823143
195	0xbb870e6d	-0.0041215927
196	0x3d599cd9	0.053128097
197	0x3d3b279b	0.045692068
198	0xbbaf1bc5	-0.0053438866
199	0xbc8ea3f8	-0.01741217
200	0x3cb4c82e	0.02206811
201	0xbbbce4e6	-0.0057645915
202	0xbd4839ed	-0.048883367
203	0xbca61194	-0.020272054
204	0xbd27f7d7	-0.041007843
205	0xbbc426d4	-0.005986074
206	0x3a1c14ee	0.00059540465
207	0x3cf26162	0.029587451
208	0xbc112722	-0.008859428
209	0x3c6154fb	0.013753171
210	0xbcf439e3	-0.029812759
211	0x3c9c8625	0.019106934
212	0x3c3c0b11	0.011477248
213	0x3b7a5a4f	0.00382008
214	0xbccd21fa	-0.025040615
215	0x3d65fceb	0.056149404
216	0xbce0a330	-0.027421564
217	0xbd0a18bc	-0.033714995
218	0xbd32977f	-0.04360151
219	0xbcd01434	-0.025400259
220	0x3bdfe5ab	0.0068327985
221	0xbc2294b5	-0.00992315
222	0x3c6d697a	0.01449048
223	0x3c707a6e	0.014677627
224	0x3c2d31f3	0.010570991
225	0xbbe5556c	-0.0069987085
226	0xbb3fe589	-0.00292811
227	0x3c913864	0.017727084
228	0x3d5da340	0.054110765
229	0x3d98c263	0.07458951
230	0x3d08ce18	0.03339967
231	0x3d98bf4d	0.07458363
232	0x3c6ddbf9	0.014517778
233	0x3d17e848	0.037086755
234	0x3d6ca744	0.057776704
235	0x3d4df3cd	0.050281335
236	0xbd38a4d1	-0.045079056
237	0x3b974de9	0.004617442
238	0x3ca63e8c	0.020293497
239	0x3a780a8c	0.0009462021
240	0x3d39686e	0.045265608
241	0xbc92a06c	-0.01789876
242	0x3d1703c5	0.03686883
243	0x3d6832c9	0.056689057
244	0x3d1a54ed	0.037678648
245	0xbce5f5a1	-0.028071227
246	0xbc9ac302	-0.018891815
247	0xbd27d44d	-0.04097395
248	0x3cefd0a2	0.029274289
249	0xbd01ccff	-0.03168964
250	0xbd60efaf	-0.05491608
251	0xbd9ff9fe	-0.07811354
252	0xbd79a39f	-0.060947057
253	0xbd4a2d63	-0.04935969
254	0xbd8aa735	-0.067701735
255	0xbc82682b	-0.015918812

layer2.0.bias f4 [32]
0	0x3cbfc67f	0.02341008
1	0x3cef372c	0.029201113
2	0x3c40f837	0.011777929
3	0x3ce1b0e8	0.027550176
4	0xba847489	-0.0010105531
5	0x3c3afb5a	0.011412466
6	0x3c9055b5	0.017618993
7	0xbd322243	-0.043489706
8	0xbc9b958f	-0.018992214
9	0xbd21f7d4	-0.039542988
10	0xbc79bdb6	-0.0152429845
11	0x3c6068cb	0.01369686
12	0xbd416e7c	-0.047224507
13	0x3bd87c4d	0.0066066147
14	0xbc28bbbb	-0.010298665
15	0x3d0e3438	0.03471777
16	0x3d3d0569	0.046147738
17	0x3b95fe53	0.004577437
18	0x3b796a4f	0.003805775
19	0xbccf7578	-0.025324568
20	0xbd0ce9a9	-0.034402523
21	0x3c26f85c	0.010191049
22	0x3bd17b53	0.006392875
23	0x3cc69086	0.024238836
24	0xbce4a792	-0.027911935
25	0xbbe87820	-0.007094398
26	0x3cc4207c	0.023941271
27	0x3cb1fb2d	0.021726215
28	0x3d2778e6	0.040886782
29	0xbc3824c4	-0.011239234
30	0xbc54c069	-0.012985327
31	0x3d0745db	0.033025604

layer2.1.weight f4 [32]
0	0x3eaeeac3	0.34163484
1	0x3e4aca73	0.19803791
2	0x3f2bdd9e	0.67135036
3	0x3f6fd4d2	0.93684113
4	0x3e050186	0.12988862
5	0x3f00cec2	0.5031549
6	0x3f2c85fa	0.6739193
7	0x3ec2af70	0.38024473
8	0x3ea3c45c	0.31985748
9	0x3d17fa93	0.0371042
10	0x3b551e85	0.0032519412
11	0x3d871523	0.065958284
12	0x3eca0596	0.39457387
13	0x3f19cba8	0.6007638
14	0x3f3de37b	0.7417523
15	0x3f076e05	0.5290225
16	0x3da61bc1	0.081107624
17	0x3eb5f3be	0.35537523
18	0x3db4a63c	0.08820769
19	0x3f5a44d4	0.85261273
20	0x3e0e31c5	0.13886173
21	0x3f62709d	0.88453084
22	0x3ef5ea6a	0.48030406
23	0x3f6e76b0	0.9314985
24	0x3e89eaef	0.26937053
25	0x3e21f2dd	0.15815301
26	0x3f1f02e8	0.6211381
27	0x3e601319	0.21882285
28	0x3f1232f8	0.5710902
29	0x3e694b19	0.22782554
30	0x3ef8d06e	0.4859652
31	0x3eea1d8c	0.45725667

layer2.1.bias f4 [32]
0	0xbd2cbb8d	-0.04217105
1	0xbc5bb8e3	-0.01341078
2	0xbca51b18	-0.02015452
3	0xbd13f495	-0.036121923
4	0xbc5ca0e0	-0.01346609
5	0xbcc5fea1	-0.024169268
6	0xbc1fc6e1	-0.009752006
7	0xbcd39d05	-0.025831709
8	0xbcb87662	-0.022517387
9	0xbc86d659	-0.01645963
10	0xbc4fa2a1	-0.012673051
11	0x3bcedecf	0.006313182
12	0xbcb6f3d2	-0.02233306
13	0xbcf250dc	-0.029579572
14	0xbcf2f6c5	-0.029658685
15	0xbc2c1e98	-0.010505341
16	0xbc092c39	-0.00837236
17	0xbc073678	-0.008252732
18	0xbb0abafb	-0.0021168578
19	0xbc4398b2	-0.011938261
20	0xbbb5bf95	-0.00554652
21	0xbc82a962	-0.015949909
22	0xbc3eace8	-0.011637904
23	0xbb9089cb	-0.0044109575
24	0xbcc4e256	-0.024033707
25	0xbb97c2d2	-0.0046313787
26	0xbbe924dd	-0.00711499
27	0xbbe723e4	-0.007053839
28	0x3b189bf0	0.0023286305
29	0xbc82eab7	-0.015981061
30	0xbcadc0a2	-0.021210019
31	0xbc867f0a	-0.016417999

layer2.1.running_mean f4 [32]
0	0xbd0ff749	-0.03514794
1	0xbac84663	-0.0015279766
2	0x3d6e80a4	0.05822815
3	0xbddb71fd	-0.10715101
4	0xbd1337b8	-0.03594181
5	0x3e31a080	0.17346382
6	0xbea3c02c	-0.31982553
7	0xbbc33336	-0.0059570326
8	0x3d104391	0.035220686
9	0x3e8eee8e	0.27916378
10	0xbec7e232	-0.3903976
11	0xbe3665c0	-0.17812252
12	0xbe2d89ea	-0.16947141
13	0x3d253bef	0.04034036
14	0xbe01f0f5	-0.12689574
15	0xbdd7b443	-0.10532429
16	0xbbff9c88	-0.0078006424
17	0xbc4efe95	-0.012633939
18	0x3d112318	0.03543386
19	0xbe204d82	-0.15654567
20	0x3ca2fb81	0.019895317
21	0xbe6289ea	-0.22122923
22	0xbe1c1877	-0.15243708
23	0x3eb6b009	0.3568118
24	0x3d83a12a	0.06427224
25	0xbea04de1	-0.31309417
26	0x3a2d2f91	0.0006606514
27	0xbce71b41	-0.028211238
28	0x3da04336	0.078253195
29	0x3b95e6b1	0.0045746197
30	0xbe07f1f6	-0.13275895
31	0xbe52657d	-0.20546527

layer2.1.running_var f4 [32]
0	0x3d566f85	0.052352447
1	0x3d972023	0.073791765
2	0x3de17e0b	0.11010369
3	0x3daa41d0	0.08313334
4	0x3d4d4008	0.050109893
5	0x3d641414	0.05568321
6	0x3dfc42c3	0.12317421
7	0x3d829ddd	0.06377766
8	0x3d66e0da	0.05636678
9	0x3dee9de8	0.11651212
10	0x3e61ca7d	0.220499
11	0x3d5d99be	0.054101698
12	0x3da3a79d	0.07990954
13	0x3defc695	0.117077984
14	0x3daa986f	0.08329856
15	0x3d629375	0.055316407
16	0x3d85ade0	0.06527305
17	0x3d801e8f	0.062558286
18	0x3d61040c	0.0549355
19	0x3e0cfc4c	0.13768119
20	0x3d008856	0.03138002
21	0x3d761205	0.06007578
22	0x3d8a2ce3	0.06746843
23	0x3db37453	0.087624215
24	0x3d50cc0a	0.050975837
25	0x3e14175f	0.1446204
26	0x3d50a36d	0.050937105
27	0x3d29289f	0.041298505
28	0x3d45d4db	0.048298698
29	0x3d66cd4f	0.05634814
30	0x3da1be15	0.078975834
31	0x3dd24d62	0.10268666

fc.weight f4 [7, 480]
0	0xbce383de	-0.02777284
1	0x3d3e44b6	0.046452247
2	0x3b5c94b8	0.003365798
3	0xbb1c89b0	-0.002388578
4	0xbd027343	-0.031848203
5	0xbc8da86d	-0.017292226
6	0x3ce2faa2	0.027707402
7	0xbb8442fd	-0.004036306
8	0x3ccc66b8	0.024951324
9	0xbc3f7566	-0.011685705
10	0x3d23991c	0.03994094
11	0xbcaf0822	-0.021366183
12	0xbc940bad	-0.018071974
13	0xbb828703	-0.00398338
14	0xbc21a622	-0.009866269
15	0x3c823a8e	0.015897062
16	0xbbdec476	-0.0067983223
17	0x3cc5c751	0.024142893
18	0x3c93b471	0.018030377
19	0xbd0b58b7	-0.034020152
20	0xbced2ae8	-0.028951123
21	0x3cbc278a	0.022968072
22	0x3c40470d	0.01173569
23	0x3d5d9869	0.054100428
24	0x3cc1f522	0.023676459
25	0xbd012baa	-0.031535782
26	0x3cd140d2	0.025543604
27	0x3d0210cd	0.031754304
28	0xbd5e0dcc	-0.054212376
29	0x3ccdfa77	0.025143845
30	0x3cff538a	0.031167764
31	0x3c8111a2	0.015755478
32	0x3b47a3b6	0.003046257
33	0xbcff2019	-0.031143235
34	0xbd4400c7	-0.047852304
35	0x3b0d5de9	0.0021570867
36	0xbbee375f	-0.0072697843
37	0x3cc83c48	0.024442807
38	0x3cd5ee49	0.0261146
39	0x3aa3a5f3	0.001248537
40	0x3caf303b	0.021385303
41	0x3cc1be84	0.023650415
42	0x3ca08414	0.01959423
43	0x3cf17740	0.029475808
44	0x3b82a507	0.003986958
45	0xbd3453cc	-0.044025227
46	0x3d271a98	0.040796846
47	0x3c8488ea	0.016178567
48	0x3c9df909	0.019283788
49	0x3c4f9637	0.012670091
50	0xbcfeab1b	-0.031087449
51	0x3c4d07c3	0.012514058
52	0xbc9d4b42	-0.019200925
53	0xbd407bea	-0.046993174
54	0x3d0f81fd	0.035036076
55	0xbc83599f	-0.016033946
56	0x3b4f0dfe	0.0031594033
57	0x3cab4422	0.020906512
58	0x3b229b3c	0.0024811765
59	0x3a97a0a0	0.0011568256
60	0x3abe5ed0	0.0014524106
61	0xbd0246bd	-0.031805743
62	0xbd03a44a	-0.0321391
63	0x3cb0a779	0.021564232
64	0x3d2ceeb6	0.04221984
65	0x3d1da896	0.038490854
66	0xbb8eee60	-0.0043619126
67	0x3c6d89bf	0.014498173
68	0x3c0d1243	0.008610311
69	0xbd57cba3	-0.052684437
70	0x3ab44fef	0.0013756732
71	0x3d16ac92	0.03678567
72	0x3d1d5314	0.038409308
73	0xbca48ec5	-0.020087609
74	0xbd138ed0	-0.03602487
75	0x3cb53894	0.022121705
76	0x3c99924e	0.018746521
77	0x3d359d94	0.04433973
78	0xbcb42535	-0.021990398
79	0x3c9a7771	0.018855782
80	0x3d01124c	0.03151159
81	0x3d1da882	0.03849078
82	0xbc5b7c99	-0.013396406
83	0xbd023895	-0.031792242
84	0xbc89c4e8	-0.016817525
85	0xbc519440	-0.012791693
86	0xbc145314	-0.0090530105
87	0xbcc9e704	-0.02464629
88	0x3d55d500	0.052205086
89	0x3c3ea079	0.011634939
90	0xbce7003d	-0.028198356
91	0xbb5f7b68	-0.0034100655
92	0x3cc79613	0.024363553
93	0xbd40af71	-0.047042314
94	0x3c0080a0	0.007843167
95	0xbc926de1	-0.01787466
96	0xbd60086e	-0.05469554
97	0x3cc9395e	0.024563488
98	0xbaf72db0	-0.001885822
99	0xbd0c8f48	-0.03431633
100	0xbc85862d	-0.016299332
101	0x3cfb957d	0.03071093
102	0x3cf34749	0.029697077
103	0xbc49c34b	-0.012314628
104	0xbd1af743	-0.037833463
105	0xbca5ddc4	-0.020247348
106	0xbc5c9bcc	-0.013464879
107	0xbd48bb88	-0.04900697
108	0xbd18b270	-0.037279546
109	0x3ca11b1c	0.019666247
110	0xbc51ec3b	-0.012812669
111	0xbc93a31d	-0.018022114
112	0xbc989d08	-0.018629566
113	0xbd4d6002	-0.05014039
114	0x3955d746	0.00020393459
115	0xbd2b22d5	-0.041781265
116	0xbc185393	-0.009297269
117	0xbcce1924	-0.025158472
118	0xbd423330	-0.047412097
119	0xbc95175e	-0.018199619
120	0xbcef5a99	-0.029218005
121	0x3cc72a2e	0.024312105
122	0xbcc1dc2e	-0.02366456
123	0x3c60d778	0.013723247
124	0x3d371ec2	0.044707067
125	0xbd308128	-0.043091923
126	0xbc0a0a2d	-0.008425278
127	0xbce710f1	-0.02820632
128	0xbc8fa01b	-0.017532399
129	0xbd138684	-0.036016956
130	0x3c94d849	0.018169539
131	0x3bea5dd7	0.0071523
132	0x3cd608f3	0.026127314
133	0x3d23b92b	0.03997151
134	0xbc37b918	-0.011213563
135	0x3cf02001	0.029312136
136	0xbd0bac20	-0.034099698
137	0xbcfc4a41	-0.030797126
138	0x3bbebbe0	0.0058207363
139	0x3cf705bf	0.030154107
140	0xbd0abd7a	-0.033872105
141	0xbd7175f1	-0.05895037
142	0x3d190328	0.037356526
143	0xbd2a8d89	-0.041638885
144	0xbc519704	-0.012792353
145	0x3d7b87bf	0.061408754
146	0x3ccfbbe5	0.02535815
147	0xbcab90b6	-0.020943027
148	0xbd006eb4	-0.031355575
149	0x3d1878d5	0.03722461
150	0xbbb7eb56	-0.005612771
151	0xbd3921cc	-0.045198247
152	0x3d1bb929	0.03801838
153	0xbd069a2d	-0.032861877
154	0x3a3d829e	0.00072292413
155	0x3c116c19	0.00887587
156	0x3d1fe31a	0.03903494
157	0x3b40b353	0.002940376
158	0x3b9b4880	0.0047388673
159	0xbce775ec	-0.028254472
160	0x3ab27479	0.0013615034
161	0x3c423260	0.011852831
162	0xbcd95856	-0.02653138
163	0x3b141e8a	0.002260121
164	0x3c2d39fb	0.010572906
165	0x3d282864	0.041054145
166	0xbd1647d3	-0.03668959
167	0x3cc62603	0.024188047
168	0x3cb43d72	0.022001956
169	0xbd490563	-0.049077403
170	0x3d066960	0.032815337
171	0xbd2d2614	-0.042272642
172	0xbd61d23e	-0.055132143
173	0x3d559f26	0.05215373
174	0x3c924ad6	0.01785795
175	0xbc013fd8	-0.007888757
176	0x3d30c644	0.04315783
177	0xbc73dde2	-0.014884444
178	0xbd5fefe6	-0.054672144
179	0xbd42800f	-0.047485407
180	0xbcbec39c	-0.023286633
181	0xbd4ddb5e	-0.050258033
182	0xba7295f3	-0.00092539116
183	0x3c7c7e6e	0.015411003
184	0x38b7ebd8	8.770049e-05
185	0xbcc43c7e	-0.023954626
186	0xbca978bb	-0.020687452
187	0x3d22aab3	0.039713573
188	0xbc5f2d7b	-0.013621683
189	0x3d0216bb	0.03175996
190	0x3b5ba116	0.0033512763
191	0x3cf7de6b	0.030257424
192	0xbc325e23	-0.010886702
193	0xbc005048	-0.007831641
194	0xbd2aaba9	-0.041667614
195	0xbcb6c9f7	-0.022313101
196	0x3cc263c5	0.023729214
197	0x3cfc322b	0.03078564
198	0xbc3c31a8	-0.011486448
199	0xbbdb3f5e	-0.0066909036
200	0xbcff7f0c	-0.03118851
201	0xbd91b416	-0.07114427
202	0xbca8d71b	-0.020610383
203	0x3d0bd15b	0.034135204
204	0xbbe4c91e	-0.006981983
205	0xbd13eecd	-0.03611641
206	0x3b7135bf	0.0036805717
207	0x3b454f45	0.0030107063
208	0x3c251ab7	0.01007717
209	0xbae8f072	-0.0017771854
210	0x3d03a25a	0.032137252
211	0x3bd9c72b	0.006646057
212	0x3c2f358b	0.010693918
213	0x3d15a080	0.036530018
214	0x3c7c2655	0.015389998
215	0xbc2b0664	-0.010438535
216	0xbc355396	-0.011067292
217	0xbc1f2ed9	-0.009715759
218	0x3ce27e64	0.027648158
219	0x3c647460	0.013943762
220	0xbd4e2b3b	-0.050334197
221	0xbb8eb66e	-0.0043552434
222	0xbc540222	-0.012939962
223	0x3d03776b	0.032096308
224	0xbd208a1a	-0.039194204
225	0x3cc1da17	0.023663564
226	0xbca029a0	-0.019551098
227	0x3d1ff35c	0.039050445
228	0xbb826d74	-0.003980333
229	0xbb002fd6	-0.0019559762
230	0x3c590f0a	0.0132482145
231	0xbca8b7dd	-0.020595485
232	0x3b862a56	0.0040944023
233	0xbbc5a34b	-0.006031429
234	0xba587752	-0.0008257526
235	0xbd1fe5f9	-0.03903768
236	0xbb66da70	-0.0035225414
237	0x3c9f02f3	0.019410586
238	0x3d2ac08c	0.041687533
239	0x3b5fb7ee	0.003413673
240	0xbcb2b506	-0.021814834
241	0xbd3373f0	-0.04381174
242	0x3d006b44	0.031352296
243	0xbd460937	-0.04834863
244	0xbb76b030	-0.0037641637
245	0xbd10274d	-0.03519373
246	0xbca2e1ae	-0.019883003
247	0x3d209fe4	0.039214984
248	0x3d11e59e	0.03561937
249	0xbcc98de7	-0.024603797
250	0xbcb8d00b	-0.02256014
251	0x3c3831af	0.011242314
252	0x3d295c36	0.041347705
253	0x3d180a53	0.03711922
254	0x3bf33452	0.0074220086
255	0xbd094889	-0.03351644

fc.bias f4 [7]
0	0x3d239e8a	0.039946117
1	0x3d5e215a	0.054231025
2	0x3d217511	0.039418284
3	0x3ae97deb	0.0017814016
4	0x3c84fcc2	0.016233806
5	0xbd45a9d5	-0.048257668
6	0x3c9fb847	0.01949705
